data.pth (torch, 5290 bytes, 6 tensors)

l1.weight f4 [8, 48]
000000 cf 37 d7 3c 9f 1d b2 3e cd 67 11 be 67 68 84 3e
       0.026271729 0.34788224 -0.14199753 0.25860903
000010 7e 7f c9 3e 31 7a e3 3d 4c 03 49 3f bb 2a 82 bd
       0.3935508 0.111072905 0.78520656 -0.063558064
000020 05 ec 8e 3e f7 f3 fb 3e e5 f7 54 3e dd 9f 19 3f
       0.27914444 0.49209568 0.2079769 0.60009557
000030 ae 9e d0 3d d7 62 09 bf f3 0e 08 3f 63 42 22 3f
       0.10186516 -0.5366644 0.5314781 0.6338255
000040 2b 6b 9b be 41 1e 33 3f 47 ca 9e 3e 67 f4 12 3f
       -0.303552 0.6996804 0.310137 0.5740418
000050 88 35 ed be f1 5e 0e 3f dd cf bf bc 80 97 cb 3e
       -0.46329904 0.5561362 -0.023414547 0.39764023
000060 12 d4 0f 3e 0c d1 14 3f 07 b7 75 bc 04 d4 a0 3e
       0.14045742 0.5813148 -0.01499725 0.31411755
000070 e9 08 3b be a8 df ae 3d c0 cb 06 3f 3b fc 4b bf
       -0.18265118 0.08538753 0.5265465 -0.7968175
000080 c5 35 9d be 8a 07 05 3f 29 03 ba 3e ea 7f 3e 3f
       -0.30705085 0.5196463 0.36330536 0.7441393
000090 6c 3b a7 3e fa 34 9b 3e b5 0c d3 be 3f df 03 be
       0.32662523 0.30313855 -0.41220632 -0.1287813
0000a0 71 7a 0c bf 31 b5 2b bd 7c 97 c1 be ac 26 d6 be
       -0.5487433 -0.041920844 -0.37810886 -0.4182638
0000b0 9d e6 72 be 04 7c 04 bf 39 75 0a 3f ca 4d 75 bd
       -0.23720784 -0.5175173 0.5408512 -0.05988864
0000c0 27 a0 3c be 2b dd e0 3e 66 40 cf be b0 41 ea be
       -0.18420468 0.43918738 -0.4047882 -0.4575324
0000d0 b0 8e 0a 3f d9 54 b5 3d 00 6e e6 3e ea fa ce be
       0.54123974 0.08854074 0.45005798 -0.40425807
0000e0 b1 79 92 be 3f bb d9 be 1f 66 07 bf 6b 5e d4 3e
       -0.28608468 -0.4252567 -0.528902 0.41478285
0000f0 69 dc 4d 3e 8e 92 90 be 84 ee c9 3e a5 75 d4 3e
       0.20103611 -0.28236812 0.39439785 0.41496006
000100 4a 56 1a 3f de 31 ce 3e 29 0c a4 3e 03 fa 3b 3f
       0.60287917 0.4027242 0.32040527 0.7342836
000110 f5 a0 95 be 4a 39 a2 3e 5c f4 85 be 79 0b 01 3f
       -0.29224363 0.31684333 -0.26162994 0.5040813
000120 7b 35 9c 3e 23 39 8b 3e c8 62 85 be 63 c8 f3 be
       0.30509552 0.2719203 -0.26051927 -0.4761382
000130 fe 19 8f 3e 86 0d c8 3e 49 dc 02 bf 26 5f 18 bf
       0.27949518 0.39072818 -0.5111738 -0.59520185
000140 0b 63 d4 3e ab 6f bd 3e 93 b3 cb be 8d 86 29 3f
       0.41481814 0.36999258 -0.39785442 0.66220933
000150 9c 76 90 3e f8 41 2b 3f fa 95 9e be f3 76 3e be
       0.28215492 0.66897535 -0.30973798 -0.18600063
000160 38 8f dc 3d c8 6b e6 be 1f e0 85 3e b7 cf b6 be
       0.10769504 -0.45004106 0.26147553 -0.3570535
000170 e1 f9 ed 3e d3 47 e4 be 7b e8 94 3e 7a c6 28 bd
       0.46479705 -0.44586048 0.2908362 -0.041204907
000180 18 a7 8d 3e 05 db ee bc 83 92 b8 3e e4 e3 bd 3e
       0.27666545 -0.029157171 0.3604928 0.3708793
000190 da be aa be d2 2d 8b 3e ca 0e 3e 3f dc aa b8 3e
       -0.33348733 0.27183396 0.74241316 0.36067855
0001a0 01 5d cf 3e 93 96 fe 3e cc e7 e1 3e 94 76 8e bd
       0.40500644 0.49724254 0.4412216 -0.06956211
0001b0 15 b1 43 3f b9 12 dc 3c 99 5d 8a be 4a bf 3c 3f
       0.7644208 0.026864396 -0.27024534 0.73729384
0001c0 b9 6a c6 3e e0 f2 8f be 70 10 10 3d 44 6d d4 be
       0.38753298 -0.28114986 0.035171926 -0.41489613
0001d0 47 9c d8 3e 7d a1 24 bf 1e d7 a8 3e 40 ac a6 be
       0.4230673 -0.6430891 0.3297662 -0.3255329
0001e0 76 46 e3 3e 72 71 25 3e cb 0f d8 3e 90 44 c4 3e
       0.44389695 0.16156557 0.4219955 0.3833356
0001f0 e7 d9 0e 3f 6c 47 9c 3e c6 44 fd 3e 78 00 22 3f
       0.5580124 0.3052324 0.49466532 0.63281965
000200 cb 9a 04 3f 01 4d 82 3e 88 ec fc 3e f5 48 5e be
       0.51798695 0.25449374 0.4939921 -0.21707518
000210 95 5e 68 be 6f 88 9c 3e 47 56 e0 b9 16 b0 77 3e
       -0.2269233 0.3057284 -0.0004278889 0.24188265
000220 a9 15 6c bf 7c 17 c9 3e 9f e3 36 3f 0e 0e 6c 3e
       -0.9222055 0.3927573 0.7144107 0.23052236
000230 85 2a b3 3e 80 5f 80 bd 0f 63 ee 3e 31 5b f4 3d
       0.34993377 -0.06268215 0.4655995 0.11931456
000240 d3 03 5c bc f5 a1 4e be cf 33 2e be 2c 76 ba be
       -0.013428646 -0.20178969 -0.17011951 -0.36418283
000250 a1 9b 72 3e c7 09 69 3d 90 c7 e1 be 86 55 da bd
       0.2369218 0.05689409 -0.44097567 -0.106608436
000260 e5 4e a3 be eb 2a 6e be 17 9b 1d be a4 d4 be 3e
       -0.3189613 -0.2325856 -0.15391193 0.37271607
000270 34 1c 3a 3e ca 35 35 be e3 06 ab 3e 7e 9e e1 be
       0.18174821 -0.176963 0.33403692 -0.44066232
000280 65 80 8a be ab 1b 22 3f d2 79 50 be 13 2b 04 3f
       -0.27051082 0.6332347 -0.20358971 0.51628226
000290 a3 e1 82 bd a9 a7 a4 3e 0d 7c e5 bd a3 78 80 3e
       -0.06390693 0.32159165 -0.112053014 0.2509204
0002a0 e6 19 ad bd 2e ee 91 be 19 24 9f 3d c8 2a c0 be
       -0.08452205 -0.2850203 0.07770557 -0.3753264
0002b0 24 e4 52 be 97 8c 83 be 03 63 d2 be 4c ac 24 3e
       -0.20594841 -0.256932 -0.41091165 0.16081351
0002c0 d9 03 29 bb 14 77 9a be ef 3f 97 be 73 c8 ab be
       -0.0025789647 -0.30168974 -0.29540965 -0.33551368
0002d0 5a 24 0d bd 8c 39 85 3e 5c ef 37 be cf 6b ec bc
       -0.034458496 0.26020467 -0.17962402 -0.02886
0002e0 f0 c1 b7 3f 9f b4 34 3d ff fb 1a be 44 88 1b bd
       1.435606 0.044117566 -0.15135191 -0.03797175
0002f0 32 47 6a be 3f e3 cf be 87 59 15 3e a1 3c 57 3e
       -0.22878721 -0.40603063 0.14584933 0.21019222
000300 21 48 4c be d8 a9 a1 bd f5 82 fc be 27 22 cc be
       -0.1994939 -0.07893723 -0.49318662 -0.39869806
000310 ac ee a1 be ae 1c 68 3f 89 55 14 3f b3 30 87 be
       -0.31627405 0.9066876 0.57943016 -0.26404342
000320 07 37 de be c3 88 d1 be a3 b9 06 bf 6c 12 bc 3c
       -0.43401358 -0.40924653 -0.5262701 0.022958003
000330 f1 b4 07 3f 55 ad 85 bd 30 82 d1 bd e9 bc 24 3f
       0.5301047 -0.06527201 -0.102299094 0.64350754
000340 95 b5 07 3f 91 71 d4 bd 46 be 9d be b6 b3 95 3d
       0.5301145 -0.103732236 -0.3080923 0.07309668
000350 a8 7a cc 3e 09 97 01 be 31 d5 64 be a5 6c 64 be
       0.3993733 -0.12655272 -0.22346951 -0.2230707
000360 4c cc f9 3e 27 5d e4 3e 47 1a 63 be f1 71 b4 be
       0.4878868 0.4460232 -0.22177993 -0.3524318
000370 d9 68 c2 3e fb 72 ab 3e 36 ca 93 be 7f 33 54 3f
       0.37970617 0.3348616 -0.28865212 0.82891077
000380 a1 ad b6 3e cf a8 a9 3e dd 73 f0 be 7a 38 16 bf
       0.35679343 0.33136603 -0.46963397 -0.58679926
000390 af d7 08 be c9 03 b4 3e e5 b8 50 be fa 12 f6 bd
       -0.13363527 0.35159138 -0.20383032 -0.12015338
0003a0 be 5d 70 3f 50 b6 ff be 1e f5 26 3f 70 ff ec 3e
       0.9389304 -0.4994378 0.6521777 0.46288633
0003b0 06 24 b9 3e d6 b9 9e bd 17 9a c2 3e 3e f7 27 3f
       0.36160296 -0.07750289 0.38008186 0.65611637
0003c0 99 a2 a8 3e 8f 3e f6 3e ef b2 0b 3f 1b ee e5 bc
       0.32936552 0.48094603 0.54569906 -0.02806764
0003d0 25 52 24 3e 54 fb e3 3e cf 73 f1 be 8a 78 01 3f
       0.1604696 0.44527686 -0.47158667 0.50574553
0003e0 e0 55 58 bd a2 a2 b7 be c0 cf 6f 3c 47 25 9c bc
       -0.05281627 -0.35866266 0.014636934 -0.019060744
0003f0 6d eb 46 bf b6 c7 ea 3e 66 3a 55 be c4 7e f1 be
       -0.7770298 0.45855492 -0.20823058 -0.47167027

l1.bias f4 [8]
000000 00 e0 68 3f f7 9c 38 3f a2 e8 03 3f dd 9e e1 3e
       0.90966797 0.7211451 0.51526845 0.44066516
000010 57 46 05 3f df 35 f1 3e fc f3 0d 3f 36 43 21 3f
       0.52060455 0.47111413 0.55450416 0.6299318

l2.weight f4 [8, 8]
000000 b6 df 81 3e 70 3e de bd af b6 14 3f f9 97 44 bf
       0.2536599 -0.10851753 0.58091253 -0.7679439
000010 ea 5e 13 bf 29 e5 7b 3f 9e af 86 3f 5f f3 ef be
       -0.575667 0.98396546 1.0522344 -0.46865365
000020 8f 6b 07 3f 45 dd 8d 3e aa 4f 8a 3f 48 6f 84 bf
       0.52898496 0.27707878 1.0805562 -1.034646
000030 c5 3d 5d 3e d5 52 8e bf fe 3a 75 be 48 18 5a be
       0.21605594 -1.1119028 -0.23948285 -0.21298325
000040 e3 6e 2b 3f 4e 99 46 3e b5 6e 37 bb d9 32 46 3d
       0.66966075 0.19394419 -0.002798957 0.048388336
000050 9c 77 0f bf 9d 85 7a 3f f4 61 82 3f 15 44 a4 3e
       -0.56041884 0.9786013 1.0186143 0.32083192
000060 80 24 ab 3f ba 53 cc 3f 20 64 8c be da 65 a2 3e
       1.3370514 1.5963051 -0.2742014 0.31718332
000070 8a 46 8f be 48 9e 16 bf 64 9f 02 3f 25 f5 a6 3f
       -0.27983505 -0.5883527 0.5102446 1.3043562
000080 dd 82 7a 3f 28 da 06 bf 37 8d f2 3d 0c 10 e7 be
       0.9785593 -0.5267663 0.11843341 -0.4512943
000090 91 47 87 3d 03 ce 75 be 34 d3 2c bf 1d 05 3d 3f
       0.06605447 -0.24004368 -0.6750977 0.7383593
0000a0 d7 15 8d be 4e 7d 6f be fc e2 63 3f 77 69 5f bf
       -0.27555725 -0.23387644 0.89018226 -0.872703
0000b0 25 79 72 bd c9 30 4c 3f c9 97 8a 3f 24 a7 06 bf
       -0.059197564 0.7976194 1.0827571 -0.52598786
0000c0 ed c7 64 3e 4e 32 b5 3e f2 8f 8c 3f c4 f2 8c bf
       0.2234189 0.35389942 1.0981429 -1.1011586
0000d0 73 93 5b 3f 52 5d db be ae c9 2e bf 94 c5 1a 3f
       0.85771865 -0.42844635 -0.6827649 0.6045773
0000e0 60 a4 af be d4 18 72 3f 07 e9 95 3e 6a 0f 96 3f
       -0.34305096 0.94569135 0.29279348 1.1723454
0000f0 be 73 a2 3f 7a 2a f3 3e fa 50 5d bf 70 52 a8 bd
       1.2691572 0.47493345 -0.86451685 -0.08218849

l2.bias f4 [8]
000000 37 d1 fb 3d 26 cc bb 3e 27 b3 1d 3c e0 40 0e 3f
       0.12295764 0.3667919 0.009625233 0.5556774
000010 06 e1 65 3e 11 fe 87 3e b7 98 a2 3e 21 1b fe 3e
       0.22449121 0.26561025 0.31757137 0.49630073

l3.weight f4 [9, 8]
000000 5e 12 ab bf f3 e8 8a 3e 6e 6d 4f bf d2 04 d3 3e
       -1.336498 0.2713085 -0.8102635 0.41214615
000010 92 e0 e6 3e a8 c5 84 bf 85 42 b7 3e 0f fd 4c bf
       0.4509321 -1.037282 0.35792938 -0.80073637
000020 43 95 8c bf 9a a8 bf bf 6c 4a d2 3e 08 3c 44 3f
       -1.0983051 -1.4973328 0.41072404 0.766541
000030 40 1b 1c be af 09 5a bf fe 97 56 be a9 ae 2e bf
       -0.1524477 -0.85171026 -0.20956418 -0.6823526
000040 4c 02 ce 3d f0 72 c8 be 63 85 14 bf 27 08 ac bf
       0.10059032 -0.3915019 -0.5801603 -1.3439988
000050 bf 2b 87 bf d7 51 3b 3f 3a f7 d7 3e 85 9c a8 bc
       -1.0560225 0.7317175 0.42180806 -0.020582447
000060 1f 60 95 bf 85 ce 39 3f 65 b5 8d bf 67 70 8b be
       -1.1669959 0.7258075 -1.1070982 -0.27234194
000070 a8 84 bc bf bc 03 91 3d f0 0e bc 3e 72 3a 1b be
       -1.4727983 0.070807904 0.36730146 -0.15159014
000080 c5 06 81 bf e0 2d 2a bf b5 c4 7a bf 27 0f aa bf
       -1.0080191 -0.6647625 -0.979564 -1.3285874
000090 5f c6 44 bf ce fd 76 bf 65 9a 6e 3e 74 50 1a 3f
       -0.7686519 -0.96481025 0.23301084 0.6027901
0000a0 fa d3 a1 3e 61 16 26 3f ff 91 3e be 56 c1 e0 be
       0.31607038 0.648779 -0.1861038 -0.43897504
0000b0 75 8e 25 3f 92 32 36 3e fc f2 5b bb e4 22 98 bf
       0.646705 0.17792729 -0.0033561578 -1.1885648
0000c0 49 fc 5b 3f de a3 86 bf 9c 2f 7e 3e ce 44 5e bf
       0.8593183 -1.0518758 0.24822849 -0.8682374
0000d0 25 54 24 bf ba c7 3d 3f 02 cc 30 bf 91 3a b2 bf
       -0.64190894 0.74132884 -0.6906129 -1.3924123
0000e0 78 ac 1c 3f e6 e3 7e bf 06 9a 92 3e 71 c7 dd 3e
       0.61200666 -0.99566495 0.28633136 0.43316224
0000f0 29 7b 85 bf 6d c4 d6 bc 66 8e 8e bf 2a 70 95 bf
       -1.042821 -0.02621671 -1.1137207 -1.1674855
000100 54 f2 27 bf de 5c 68 bf 34 eb bc bf 55 c3 20 3e
       -0.6560414 -0.90766704 -1.4759278 0.15699513
000110 0e 95 5b bf 49 4c 3c bf b1 f2 1d bf 8e 87 91 3e
       -0.85774314 -0.735539 -0.6169844 0.28423733

l3.bias f4 [9]
000000 a9 f7 ec ba fa 59 25 3e c9 99 63 bd 4d b4 d9 be
       -0.001807918 0.16147605 -0.055566583 -0.4252037
000010 06 36 4e 3d 36 ff e7 be 6c b4 fd 3d 5f fa 13 3e
       0.05034449 -0.45311898 0.12387928 0.14450978
000020 3b 03 0d 3e
       0.13770764
